Training Distribution: 56 44
Number of Exoplanet Systems: 500
Number of Non-Exoplanet Systems: 500
Length Training Data: 100 100
Length Training Y Values 50 50
Model: "sequential_4"
_________________________________________________________________
 Layer (type)                Output Shape              Param #   
=================================================================
 dense_23 (Dense)            (None, 1060)              124750340 
                                                                 
 dense_24 (Dense)            (None, 512)               543232    
                                                                 
 dense_25 (Dense)            (None, 254)               130302    
                                                                 
 dense_26 (Dense)            (None, 124)               31620     
                                                                 
 dense_27 (Dense)            (None, 62)                7750      
                                                                 
 dense_28 (Dense)            (None, 32)                2016      
                                                                 
 dense_29 (Dense)            (None, 16)                528       
                                                                 
 dense_30 (Dense)            (None, 8)                 136       
                                                                 
 dense_31 (Dense)            (None, 4)                 36        
                                                                 
 dense_32 (Dense)            (None, 2)                 10        
                                                                 
 dense_33 (Dense)            (None, 1)                 3         
                                                                 
=================================================================
Total params: 125465973 (478.61 MB)
Trainable params: 125465973 (478.61 MB)
Non-trainable params: 0 (0.00 Byte)
_________________________________________________________________
Epoch 1/15
99/99 [==============================] - 187s 2s/step - loss: 175370.0781 - accuracy: 0.4646 - val_loss: 5.2344e-27 - val_accuracy: 1.0000
…
99/99 [==============================] - 175s 2s/step - loss: 37648.4844 - accuracy: 0.6768 - val_loss: 0.0000e+00 - val_accuracy: 1.0000
Epoch 15/15
99/99 [==============================] - 175s 2s/step - loss: 5125.2627 - accuracy: 0.7071 - val_loss: 0.0000e+00 - val_accuracy: 1.0000

Training Distribution: 50 50
Number of Exoplanet Systems: 500
Number of Non-Exoplanet Systems: 500
Length Training Data: 100 100
Length Training Y Values 25 25
Model: "sequential"
_________________________________________________________________
 Layer (type)                Output Shape              Param #   
=================================================================
 dense (Dense)               (None, 2120)              249500680 
                                                                 
 dense_1 (Dense)             (None, 1060)              2248260   
                                                                 
 dense_2 (Dense)             (None, 512)               543232    
                                                                 
 dense_3 (Dense)             (None, 254)               130302    
                                                                 
 dense_4 (Dense)             (None, 124)               31620     
                                                                 
 dense_5 (Dense)             (None, 62)                7750      
                                                                 
 dense_6 (Dense)             (None, 32)                2016      
                                                                 
 dense_7 (Dense)             (None, 16)                528       
                                                                 
 dense_8 (Dense)             (None, 8)                 136       
                                                                 
 dense_9 (Dense)             (None, 4)                 36        
                                                                 
 dense_10 (Dense)            (None, 2)                 10        
                                                                 
 dense_11 (Dense)            (None, 1)                 3         
                                                                 
=================================================================
Total params: 252464573 (963.08 MB)
Trainable params: 252464573 (963.08 MB)
Non-trainable params: 0 (0.00 Byte)
_________________________________________________________________
Epoch 1/15
85/85 [==============================] - 460s 5s/step - loss: 89.4301 - accuracy: 0.6824 - val_loss: 0.2282 - val_accuracy: 0.9333
…
85/85 [==============================] - 466s 5s/step - loss: 0.3449 - accuracy: 0.7647 - val_loss: 0.2771 - val_accuracy: 0.8667
Epoch 15/15
85/85 [==============================] - 457s 5s/step - loss: 0.3194 - accuracy: 0.7647 - val_loss: 0.3486 - val_accuracy: 0.8667


Training Distribution: 103 97
Number of Exoplanet Systems: 500
Number of Non-Exoplanet Systems: 500
Length Training Data: 200 200
Length Training Y Values 25 25
Model: "sequential_1"
_________________________________________________________________
 Layer (type)                Output Shape              Param #   
=================================================================
 dense_12 (Dense)            (None, 2120)              228898520 
                                                                 
 dense_13 (Dense)            (None, 1060)              2248260   
                                                                 
 dense_14 (Dense)            (None, 512)               543232    
                                                                 
 dense_15 (Dense)            (None, 254)               130302    
                                                                 
 dense_16 (Dense)            (None, 124)               31620     
                                                                 
 dense_17 (Dense)            (None, 62)                7750      
                                                                 
 dense_18 (Dense)            (None, 32)                2016      
                                                                 
 dense_19 (Dense)            (None, 16)                528       
                                                                 
 dense_20 (Dense)            (None, 8)                 136       
                                                                 
 dense_21 (Dense)            (None, 4)                 36        
                                                                 
 dense_22 (Dense)            (None, 2)                 10        
                                                                 
 dense_23 (Dense)            (None, 1)                 3         
                                                                 
=================================================================
Total params: 231862413 (884.48 MB)
Trainable params: 231862413 (884.48 MB)
Non-trainable params: 0 (0.00 Byte)
_________________________________________________________________
Epoch 1/15
170/170 [==============================] - 867s 5s/step - loss: 103.7798 - accuracy: 0.7235 - val_loss: 2.4667 - val_accuracy: 0.7000
…
170/170 [==============================] - 930s 5s/step - loss: 0.6986 - accuracy: 0.4941 - val_loss: 0.6726 - val_accuracy: 0.6333



Increasing Number of systems, experimenting with node distribution

Training Distribution: 200 200
Number of Exoplanet Systems: 500
Number of Non-Exoplanet Systems: 500
Length Training Data: 400 400
Length Training Y Values 25 25
Model: "sequential"
_________________________________________________________________
 Layer (type)                Output Shape              Param #   
=================================================================
 dense (Dense)               (None, 2200)              258915800 
                                                                 
 dense_1 (Dense)             (None, 512)               1126912   
                                                                 
 dense_2 (Dense)             (None, 124)               63612     
                                                                 
 dense_3 (Dense)             (None, 16)                2000      
                                                                 
 dense_4 (Dense)             (None, 2)                 34        
                                                                 
 dense_5 (Dense)             (None, 1)                 3         
                                                                 
=================================================================
Total params: 260108361 (992.23 MB)
Trainable params: 260108361 (992.23 MB)
Non-trainable params: 0 (0.00 Byte)
_________________________________________________________________
Epoch 1/15
340/340 [==============================] - 1983s 6s/step - loss: 23181.2051 - accuracy: 0.7941 - val_loss: 1405.8817 - val_accuracy: 0.7500
…
340/340 [==============================] - 1896s 6s/step - loss: 0.6696 - accuracy: 0.8176 - val_loss: 316.7443 - val_accuracy: 0.7167
Epoch 10/15
296/340 [=========================>....] - ETA: 4:04 - loss: 2.7987 - accuracy: 0.8142



Training Distribution: 393 407
Number of Exoplanet Systems: 500
Number of Non-Exoplanet Systems: 500
Length Training Data: 800 800
Length Training Y Values 25 25
Model: "sequential"
_________________________________________________________________
 Layer (type)                Output Shape              Param #   
=================================================================
 dense (Dense)               (None, 2600)              305991400 
                                                                 
 dense_1 (Dense)             (None, 312)               811512    
                                                                 
 dense_2 (Dense)             (None, 124)               38812     
                                                                 
 dense_3 (Dense)             (None, 16)                2000      
                                                                 
 dense_4 (Dense)             (None, 2)                 34        
                                                                 
 dense_5 (Dense)             (None, 1)                 3         
                                                                 
=================================================================
Total params: 306843761 (1.14 GB)
Trainable params: 306843761 (1.14 GB)
Non-trainable params: 0 (0.00 Byte)
_________________________________________________________________
Epoch 1/20
15/15 [==============================] - 114s 7s/step - loss: 3331.5403 - accuracy: 0.6194 - val_loss: 558.6937 - val_accuracy: 0.6625
…
